…
WARNING:tensorflow:From c:\Users\Özdemir\AppData\Local\Programs\Python\Python311\Lib\site-packages\keras\src\backend.py:873: The name tf.get_default_graph is deprecated. Please use tf.compat.v1.get_default_graph instead.
WARNING:tensorflow:From c:\Users\Özdemir\AppData\Local\Programs\Python\Python311\Lib\site-packages\keras\src\layers\pooling\max_pooling2d.py:161: The name tf.nn.max_pool is deprecated. Please use tf.nn.max_pool2d instead.
Model: "sequential_2"
_________________________________________________________________
 Layer (type)                Output Shape              Param #
=================================================================
 sequential_1 (Sequential)   (None, 224, 224, 3)       0
 conv2d (Conv2D)             (None, 222, 222, 6)       168
 batch_normalization (Batch  (None, 222, 222, 6)       24
 Normalization)
 max_pooling2d (MaxPooling2  (None, 111, 111, 6)       0
 D)
 dropout (Dropout)           (None, 111, 111, 6)       0
 conv2d_1 (Conv2D)           (None, 109, 109, 16)      880
 batch_normalization_1 (Bat  (None, 109, 109, 16)      64
 chNormalization)
 max_pooling2d_1 (MaxPoolin  (None, 54, 54, 16)        0
 g2D)
 flatten (Flatten)           (None, 46656)             0
 dense (Dense)               (None, 1024)              47776768
 batch_normalization_2 (Bat  (None, 1024)              4096
 chNormalization)
 dropout_1 (Dropout)         (None, 1024)              0
 dense_1 (Dense)             (None, 128)               131200
 batch_normalization_3 (Bat  (None, 128)               512
 chNormalization)
 dense_2 (Dense)             (None, 4)                 516
=================================================================
Total params: 47914228 (182.78 MB)
Trainable params: 47911880 (182.77 MB)
Non-trainable params: 2348 (9.17 KB)
