…
<_PrefetchDataset element_spec=(TensorSpec(shape=(None, 256, 256, 3), dtype=tf.float32, name=None), TensorSpec(shape=(None, 4), dtype=tf.float32, name=None))>
<_PrefetchDataset element_spec=(TensorSpec(shape=(None, 256, 256, 3), dtype=tf.float32, name=None), TensorSpec(shape=(None, 4), dtype=tf.float32, name=None))>
<_PrefetchDataset element_spec=(TensorSpec(shape=(None, 256, 256, 3), dtype=tf.float32, name=None), TensorSpec(shape=(None, 4), dtype=tf.float32, name=None))>
Model: "sequential_10"
_________________________________________________________________
 Layer (type)                Output Shape              Param #
=================================================================
 sequential_9 (Sequential)   (None, 256, 256, 3)       0
 conv2d_4 (Conv2D)           (None, 254, 254, 6)       168
 batch_normalization_10 (Ba  (None, 254, 254, 6)       24
 tchNormalization)
 max_pooling2d_4 (MaxPoolin  (None, 127, 127, 6)       0
 g2D)
 dropout_4 (Dropout)         (None, 127, 127, 6)       0
 conv2d_5 (Conv2D)           (None, 125, 125, 16)      880
 batch_normalization_11 (Ba  (None, 125, 125, 16)      64
 tchNormalization)
 max_pooling2d_5 (MaxPoolin  (None, 62, 62, 16)        0
 g2D)
 flatten_2 (Flatten)         (None, 61504)             0
 dense_12 (Dense)            (None, 1024)              62981120
 batch_normalization_12 (Ba  (None, 1024)              4096
 tchNormalization)
 dropout_5 (Dropout)         (None, 1024)              0
 dense_13 (Dense)            (None, 128)               131200
 batch_normalization_13 (Ba  (None, 128)               512
 tchNormalization)
 dense_14 (Dense)            (None, 4)                 516
=================================================================
Total params: 63118580 (240.78 MB)
Trainable params: 63116232 (240.77 MB)
Non-trainable params: 2348 (9.17 KB)
_________________________________________________________________
Model: "sequential_11"
_________________________________________________________________
 Layer (type)                Output Shape              Param #
=================================================================
 efficientnetb4 (Functional  (None, 8, 8, 1792)        17673823
 )
 global_average_pooling2d_2  (None, 1792)              0
  (GlobalAveragePooling2D)
 dense_15 (Dense)            (None, 1024)              1836032
 batch_normalization_14 (Ba  (None, 1024)              4096
 tchNormalization)
 dense_16 (Dense)            (None, 128)               131200
 dense_17 (Dense)            (None, 4)                 516
=================================================================
Total params: 19645667 (74.94 MB)
Trainable params: 1969796 (7.51 MB)
Non-trainable params: 17675871 (67.43 MB)
_________________________________________________________________
Epoch 1/10
WARNING:tensorflow:From c:\Users\Özdemir\AppData\Local\Programs\Python\Python311\Lib\site-packages\keras\src\utils\tf_utils.py:492: The name tf.ragged.RaggedTensorValue is deprecated. Please use tf.compat.v1.ragged.RaggedTensorValue instead.
…
